k_cross_CNN.pt (torch, 36784 bytes, 8 tensors)

weight f4 [16, 3, 3, 3]
0	0xbf4723cb	-0.7778899
1	0x3c7e1f63	0.015510413
2	0xbf06658f	-0.52498716
3	0xbebc2f5a	-0.36754876
4	0x3f8022b9	1.0010597
5	0xbfa56f88	-1.2924662
6	0xbf0a8e47	-0.5412335
7	0x3ef9c952	0.48786408
8	0x3ebc8f3e	0.36828035
9	0x3e511323	0.20417456
10	0xbe4ad62a	-0.1980826
11	0xbcffcd8e	-0.031225946
12	0xbec54030	-0.38525534
13	0x3ea4c37d	0.32180396
14	0x3f62c2bf	0.8857841
15	0xbf00638e	-0.5015191
16	0x3ebe8ec6	0.37218302
17	0x3f947bdb	1.1600298
18	0xbecff193	-0.40613994
19	0x3d20f4f7	0.039296117
20	0x3ee2f953	0.44330844
21	0x3f593c84	0.84857965
22	0x3cbc5cce	0.022993471
23	0xbeec47ae	-0.46148437
24	0x3f730303	0.9492647
25	0x3e9ebd2b	0.310037
26	0xbf8db3ff	-1.1070555
27	0xbd0d53ae	-0.03450363
28	0xbe2d9ac7	-0.16953574
29	0xbdec5bc9	-0.11540944
30	0xbf3ad04f	-0.72974104
31	0x3dec40a5	0.115357675
32	0xbe41a6e1	-0.18911316
33	0xbc4759b0	-0.012167379
34	0x3efe07bf	0.49615285
35	0x3e231ae1	0.15928222
36	0x3e1bfe8c	0.1523382
37	0x3e6cd992	0.23129871
38	0xbd7bcd99	-0.06147537
39	0x3f1c689a	0.6109711
40	0xbe67eaa1	-0.22648098
41	0xbf8acb1d	-1.0843235
42	0x3d60bcf0	0.054867685
43	0xbd9530fc	-0.07284734
44	0x3e8716cc	0.2638458
45	0x3e67e1a4	0.22644669
46	0x3d274e71	0.040846292
47	0x3e4ca0c5	0.19983204
48	0xbf41eb2f	-0.75749487
49	0x3f4458d8	0.76698065
50	0x3fc2b887	1.5212563
51	0xbddff059	-0.109345146
52	0xbd068c50	-0.032848656
53	0x3f49539d	0.7864321
54	0x3b53e5b8	0.0032332968
55	0x3d8bb019	0.06820697
56	0x3e90e93e	0.2830295
57	0xbed94de4	-0.42442238
58	0xbedf18eb	-0.43573698
59	0xbe2999aa	-0.16562524
60	0x3f4c0646	0.7969707
61	0x3ec0ba14	0.37641966
62	0x3e2dc0ba	0.1696805
63	0xbde69833	-0.112594984
64	0x3eaf8ce4	0.3428718
65	0x3d29b8e2	0.041436084
66	0x3cc08ed0	0.023505598
67	0x3f8f12ad	1.1177574
68	0x3d55b4de	0.05217444
69	0x3d85d83f	0.06535386
70	0x3f8df278	1.108962
71	0xbc522a14	-0.012827415
72	0xbde4e77f	-0.11176967
73	0x3dcb6e95	0.09933201
74	0x3dfc6380	0.123236656
75	0x3d88bd80	0.06676769
76	0xbfc36a44	-1.5266805
77	0xbc9ddf03	-0.01927138
78	0x3db39bd5	0.08769957
79	0xbf82e68a	-1.0226605
80	0x3d2f2819	0.04276285
81	0x3e2a8455	0.16652043
82	0x3ee84c0f	0.45370528
83	0xbeb261ec	-0.34840333
84	0x3ddee6fb	0.108839
85	0x3f2c013e	0.67189395
86	0xbfc1f8fb	-1.5154108
87	0x3e89d52a	0.26920444
88	0x3f6e6546	0.9312328
89	0xbf3d2188	-0.7387929
90	0xbde6184a	-0.112351015
91	0xbf0b155d	-0.5432947
92	0x3e5482e1	0.20753051
93	0x3e7d7186	0.24750337
94	0x3e62120e	0.220772
95	0x3e036679	0.12832059
96	0x3e69fa96	0.22849497
97	0x3f9f51cb	1.2446836
98	0x3ea43b8a	0.32076675
99	0x3e0c4c76	0.13701043
100	0x3ec19101	0.37805942
101	0xbd00a7eb	-0.03141014
102	0x3dc5548f	0.09635269
103	0x3e1a10c1	0.15045454
104	0x3ee99bb8	0.45626616
105	0x3eb34eb7	0.35020992
106	0xbf9f603b	-1.2451242
107	0xbd38be2b	-0.045103233
108	0xbc4180f6	-0.011810532
109	0xbebda234	-0.37037814
110	0x3eba0cce	0.36337894
111	0x3e8c4c5c	0.27402008
112	0xbf342726	-0.70372236
113	0xbdfcc152	-0.123415604
114	0x3e09d791	0.13461138
115	0xbe815fba	-0.25268346
116	0x3e984a3e	0.29744142
117	0xbdf8d29e	-0.12149547
118	0x3e799b77	0.24375711
119	0x3ddd2093	0.10797229
120	0x3ebaebea	0.36508113
121	0x3d903f61	0.070433386
122	0x3e6127cd	0.21987839
123	0x3d47e94e	0.04880648
124	0xbf618faa	-0.8810984
125	0xbf0aef9f	-0.5427188
126	0x3d22a1cc	0.039705083
127	0xbe91655b	-0.2839764
128	0xbe6f5a73	-0.23374347
129	0x3c595815	0.013265629
130	0x3f3f8391	0.7481013
131	0x3f03f21b	0.515413
132	0x3da43f6a	0.08019908
133	0x3fb7e81b	1.4367708
134	0x3f96baec	1.1775794
135	0x3e45d6a5	0.19320162
136	0xbcfb2920	-0.030659258
137	0xc02bd40f	-2.684818
138	0x3ee6157f	0.44938275
139	0xbd2e0450	-0.04248458
140	0xbf57ca87	-0.8429341
141	0xbf07af38	-0.5300174
142	0xbdff1e9e	-0.12457012
143	0xc02e98f7	-2.7280862
144	0x3eae45b7	0.34037563
145	0xbce26c02	-0.027639393
146	0x3ebaa597	0.3645446
147	0x3f198214	0.5996411
148	0x3ede8a01	0.43464664
149	0x3e7bc141	0.2458544
150	0x3f07f0f7	0.5310206
151	0x3e13c790	0.14431596
152	0x3e0fa3d9	0.14027347
153	0x3e9b0312	0.3027578
154	0x3effd46e	0.49966758
155	0x3f495a9c	0.78653884
156	0xbe859274	-0.26088297
157	0x3dd3a613	0.103344105
158	0x3f1d433e	0.6143073
159	0x3f256076	0.6460031
160	0x3f03e5f0	0.5152273
161	0x3f56a4c4	0.8384516
162	0xbf38fddc	-0.7226236
163	0xbf99bb29	-1.2010242
164	0x3ea9ea5c	0.33186615
165	0x3ea9abfd	0.3313903
166	0xbe98a9dc	-0.29817092
167	0x3f97fbd3	1.1873726
168	0x3dbfc104	0.09362987
169	0xbf5b2e6a	-0.856177
170	0x3f63140a	0.8870245
171	0xbe0865ff	-0.13320158
172	0x3ec5fd03	0.38669595
173	0x3dc03377	0.09384816
174	0x3e167fee	0.14697239
175	0x3f21d299	0.6321197
176	0x3f4bbd53	0.7958576
177	0x3e912420	0.28347874
178	0xbe93894f	-0.28815696
179	0xbe4ca8ea	-0.1998631
180	0x3efef2c2	0.49794585
181	0x3cac7358	0.021051094
182	0x3d2aa5ed	0.041662145
183	0xbe203634	-0.15645677
184	0xbefa19c4	-0.48847783
185	0xbf82e8c5	-1.0227286
186	0xbf0a861c	-0.54110885
187	0x3f53f147	0.82790035
188	0x3ec46a5f	0.38362405
189	0xbd01c1ed	-0.031679083
190	0x3f1e63ff	0.6187133
191	0x3e30ede6	0.17278251
192	0x3e448ed5	0.19195111
193	0x3fa69183	1.3013157
194	0x3faa40f3	1.3301071
195	0x3efa1879	0.48846796
196	0x3f48f6fa	0.78501856
197	0x3f24096b	0.6407687
198	0x3ec95cba	0.39328557
199	0x3e782753	0.24233751
200	0x3f19a598	0.600183
201	0x3c9ea64a	0.019366402
202	0x3e78cbe6	0.24296531
203	0x3df1606d	0.1178597
204	0x3e919b86	0.28438967
205	0x3ed9d077	0.4254186
206	0x3d268901	0.040658
207	0x3ebc9c9d	0.36838236
208	0x3e89eb10	0.2693715
209	0x3e7d77de	0.24752757
210	0x3e8b9211	0.27259877
211	0x3e43766c	0.19088143
212	0x3ea43732	0.3207336
213	0xbd431ab2	-0.04763288
214	0x3ed093ae	0.4073767
215	0x3f4d2dd6	0.80148065
216	0x3d8ed402	0.06974031
217	0x3f7b6a8f	0.9820947
218	0x3f03c6f1	0.51475435
219	0x3db4f7d5	0.08836333
220	0x3eaa6ada	0.33284646
221	0xbca5cd86	-0.020239603
222	0x3e1191cc	0.14215773
223	0xbc984c45	-0.018591056
224	0x3de7fe61	0.11327816
225	0x3e0cb83f	0.1374216
226	0xbf83cd12	-1.0296957
227	0x3ebceddc	0.36900222
228	0x3e3f26c8	0.18667138
229	0xbee502c2	-0.44728667
230	0x3dc248f6	0.094865724
231	0x3e0829e1	0.13297226
232	0x3e51c2d5	0.20484479
233	0x3e0b849c	0.13624805
234	0x3e1ab288	0.15107167
235	0x3fa13059	1.259288
236	0x3ea8352c	0.32853067
237	0x3e45db1a	0.19321862
238	0x3f4fbc52	0.8114673
239	0x3e1459c9	0.14487375
240	0x3c93a05f	0.018020807
241	0xbdbe5fa1	-0.092955835
242	0xbc8004a2	-0.01562721
243	0xbf87a438	-1.059699
244	0x3fd8aac4	1.6927114
245	0x3ea4ec23	0.32211408
246	0xbff42490	-1.9073658
247	0xbfd7e256	-1.6865947
248	0xbfb8a0d2	-1.4424078
249	0xbea5eaf0	-0.32405806
250	0xbe5df679	-0.21676053
251	0xbe270d11	-0.16313578
252	0xbd6d1343	-0.057879698
253	0xbf8e0adf	-1.1097068
254	0x3d3d407a	0.046204068
255	0x3e35316a	0.17694631

bias f4 [16]
0	0x3eda8bd6	0.4268481
1	0x3eb80857	0.35943863
2	0x3ec04721	0.37554267
3	0x3f29d243	0.6633646
4	0x3ec65f8f	0.3874478
5	0x3f3070aa	0.6892191
6	0x3e41b979	0.18918408
7	0x3f4dedfa	0.8044125
8	0x3eaac8b0	0.33356237
9	0x3eca464e	0.39506763
10	0x3f06e7c6	0.5269741
11	0x3f068246	0.5254253
12	0x3ed4bb02	0.41548926
13	0x3f31e890	0.6949549
14	0x3f87719e	1.0581548
15	0x3e638df9	0.22222127

weight f4 [32, 16, 3, 3]
0	0xbf5d5d18	-0.86470175
1	0x3dc0f020	0.094208
2	0xbe136093	-0.14392309
3	0x3db95755	0.090498604
4	0xbee270db	-0.44226727
5	0x3d813f03	0.06310847
6	0xbe2714f1	-0.16316582
7	0xbc9d04c3	-0.01916731
8	0xbccd3065	-0.02504749
9	0x3ddcb220	0.10776162
10	0xbede4f55	-0.434199
11	0x3dcffa1b	0.10155126
12	0xbe225a5b	-0.1585478
13	0xbe12e201	-0.14344026
14	0x3d073f58	0.033019394
15	0x3e4f1e8d	0.20226498
16	0x387e69ca	6.0656843e-05
17	0x3dedaddc	0.11605427
18	0x3acda899	0.0015690505
19	0xbd650533	-0.05591316
20	0x3e3ce01b	0.18444864
21	0x3eabca65	0.33552852
22	0x3e4c8fe2	0.19976762
23	0xbe237bce	-0.15965196
24	0x3cd4f3c1	0.025995137
25	0x3e187544	0.14888483
26	0xbe3e2c71	-0.1857164
27	0xbe83f603	-0.2577363
28	0x3d9070b6	0.07052748
29	0x3d5db662	0.054129012
30	0x3dc6b635	0.09702722
31	0xbe2f4484	-0.1711598
32	0x3cb79d5e	0.022413906
33	0x3cf5471d	0.029941136
34	0xbe1d9489	-0.15388693
35	0x3db3c954	0.08778635
36	0x3ed7b0a8	0.42126966
37	0xbe06cd88	-0.13164341
38	0xbd45e949	-0.04831818
39	0xbe8cb4dc	-0.27481735
40	0xbe91632f	-0.28395984
41	0xbe067643	-0.13131051
42	0xbe484dee	-0.19560978
43	0xbe901440	-0.2814045
44	0xbe6c03f4	-0.23048383
45	0x3d05502e	0.03254717
46	0xbf3c9a65	-0.7367309
47	0x3d93b7f1	0.072128184
48	0x3dce5b50	0.1007601
49	0x3e9dce40	0.3082142
50	0x3da26726	0.0792983
51	0x3e8882cf	0.266623
52	0x3e5850d4	0.21124583
53	0x3e310e86	0.17290697
54	0xbe5fb40e	-0.21846029
55	0xbeb3d365	-0.3512222
56	0xbdb68784	-0.08912566
57	0xbe80ce3b	-0.2515734
58	0x3d5dfa48	0.054193765
59	0xbc9ef122	-0.01940209
60	0x3cf0847a	0.029360045
61	0x3dc4b790	0.09605324
62	0xbd616ded	-0.055036474
63	0x3e148a05	0.14505775
64	0x3bb95215	0.005655537
65	0x3ec52472	0.38504368
66	0x3da52959	0.08064527
67	0x3f1fcea9	0.62424713
68	0xbe9c36f0	-0.30510664
69	0xbe9eceb0	-0.31017065
70	0x3c7a06c2	0.0152604
71	0xbe562ed5	-0.20916303
72	0x3ec36626	0.3816387
73	0x3ea352d1	0.3189912
74	0xbe66c466	-0.22535858
75	0xbe19408a	-0.14966026
76	0x3e12a81a	0.14321938
77	0xbe9ae40b	-0.30252108
78	0xbec8cef8	-0.39220405
79	0xbea21e28	-0.31663632
80	0xbe21bc7f	-0.15794562
81	0x3e12c72e	0.14333794
82	0x3d2bfb79	0.04198787
83	0x3f049a32	0.51797783
84	0xbe47ba11	-0.19504572
85	0x3df1dfb9	0.1181025
86	0xbc596881	-0.013269545
87	0x3d309167	0.043107416
88	0x3de3ecc6	0.11129145
89	0x3df3f115	0.11911217
90	0x3d96a1be	0.073550686
91	0x3e52707d	0.20550723
92	0xbe5c8989	-0.2153684
93	0xbdab3b57	-0.083609276
94	0xbdaa0899	-0.08302421
95	0xbce68e25	-0.028143952
96	0xbd89ec4d	-0.06734524
97	0x3d2d88f2	0.04236693
98	0xbbe5537c	-0.0069984775
99	0x3ebcf613	0.3690649
100	0x3ea229f1	0.31672624
101	0x3e77f132	0.24213102
102	0x3d729d5b	0.059232097
103	0x3e71b3d1	0.23603751
104	0x3e0c1035	0.13678057
105	0xbc45f529	-0.0120823765
106	0x3dca71df	0.098850004
107	0xbbe542db	-0.006996495
108	0xbccffac6	-0.025388133
109	0xbe0d658e	-0.13808271
110	0xbd85edd4	-0.06539503
111	0x3e43b569	0.19112171
112	0x3e118430	0.14210582
113	0xbda31f43	-0.07964947
114	0x3e8955cc	0.2682327
115	0x3e538596	0.20656428
116	0x3e3f8094	0.18701392
117	0xbda2e84c	-0.07954463
118	0x3ee0eb23	0.43929395
119	0xbdcea458	-0.1008994
120	0x3ebc50e3	0.36780462
121	0x3e80406b	0.25049147
122	0x3dffa932	0.12483443
123	0x3e984e70	0.29747343
124	0x3e921d02	0.28537756
125	0x3e305985	0.17221649
126	0x3e463395	0.19355614
127	0x3eec7100	0.46179962
128	0x3e534842	0.20633033
129	0xbc04aadd	-0.008097378
130	0x3ede6fb4	0.43444598
131	0x3d850b18	0.064962566
132	0xbdb8bccd	-0.09020386
133	0xbc8bdf44	-0.017074235
134	0xbdd80dd7	-0.10549515
135	0xbedad3a3	-0.4273959
136	0xbf06ca79	-0.526527
137	0x3c61c4e9	0.013779857
138	0xbe97a96d	-0.2962145
139	0xbeeeff09	-0.4667895
140	0x3d2e0f53	0.042495083
141	0xbea9ff9b	-0.33202824
142	0xbe9bfb5a	-0.30465204
143	0xbe3612da	-0.17780629
144	0xbd09e33a	-0.033663966
145	0x3e1b6ff4	0.15179425
146	0x3c8f4626	0.017489504
147	0x3d3b073e	0.045661204
148	0xbcd33fd8	-0.025787279
149	0x3e0e772f	0.13912652
150	0xbdb8deb9	-0.09026856
151	0xbd31ecc9	-0.043438707
152	0x3daf92df	0.08572935
153	0x3e810b48	0.2520392
154	0x3d2457e9	0.0401229
155	0xbe880d0f	-0.26572463
156	0x3eead795	0.458676
157	0x3e82f113	0.2557455
158	0xbdffdc22	-0.12493159
159	0xbcfafc2e	-0.030637827
160	0x3e0b51c7	0.13605414
161	0x3e500ba6	0.20316944
162	0xbe586691	-0.21132876
163	0xbe8d9c7a	-0.27658445
164	0xbea4f094	-0.32214797
165	0xbd6d7b52	-0.057978936
166	0xbea7dd01	-0.327858
167	0xbe533faf	-0.20629762
168	0x3d1b448e	0.037907176
169	0xbd4b998c	-0.04970698
170	0xbdd98377	-0.10620778
171	0xbb896766	-0.0041932343
172	0x3ec0ae03	0.3763276
173	0xbe69c4c6	-0.2282897
174	0xbe4dd627	-0.20101224
175	0x3f2078ff	0.62684625
176	0x3e425611	0.18978144
177	0x3ceecb9a	0.02914982
178	0xbcac86cf	-0.021060375
179	0xbd0400c7	-0.032227304
180	0xbe86cb2f	-0.26326892
181	0x3ea69704	0.3253709
182	0xbeac28a0	-0.33624744
183	0x3e324350	0.1740849
184	0xbaf356c4	-0.0018565287
185	0xbdbc46d2	-0.091931954
186	0xbdb069fd	-0.08613966
187	0xbaa8c290	-0.0012875367
188	0xbe04626a	-0.12928167
189	0x3d30204b	0.042999547
190	0x3e17e125	0.1483198
191	0x3dca91a5	0.09891061
192	0x3da65d96	0.08123319
193	0xbd35b53b	-0.044362288
194	0x3e021514	0.12703353
195	0x3c9213ac	0.017831646
196	0xbbaf2bfb	-0.005345819
197	0x3d29cb0f	0.041453417
198	0x3d1cd3ff	0.038288113
199	0xbe640a93	-0.22269659
200	0xbe2735f7	-0.1632918
201	0xbcb02ef9	-0.021506773
202	0x3c630833	0.013856935
203	0xbd10d7f2	-0.03536219
204	0x3d44c970	0.04804367
205	0x3d89d991	0.067309506
206	0xbd28c29d	-0.041201223
207	0x3e2cc21a	0.16870919
208	0x3f13475a	0.5753075
209	0x3eb7dec6	0.3591215
210	0x3def4cde	0.11684583
211	0x3f2c93ff	0.67413324
212	0x3e7f47e4	0.24929768
213	0x3d593ca2	0.05303634
214	0x3d8a8234	0.067631155
215	0xbdc77bfe	-0.097404465
216	0xbe37823c	-0.17920774
217	0xbe74fcea	-0.23924604
218	0xbdbe9708	-0.09306151
219	0xbea69881	-0.32538226
220	0x3f8b0ed9	1.0863906
221	0xbe70bbb0	-0.23509097
222	0xbe50a19a	-0.20374146
223	0xbf0bf44a	-0.5466963
224	0xbec8ff9f	-0.39257523
225	0x3dc0c721	0.09412981
226	0x3e81cdca	0.25352317
227	0x3ee27578	0.44230247
228	0xbde037f0	-0.10948169
229	0x3ecf3391	0.4046903
230	0x3e2d6fd8	0.16937196
231	0xbd335bca	-0.04378871
232	0x39aff9c6	0.00033564697
233	0x3d863dc9	0.06554753
234	0xbd04f593	-0.03246076
235	0x3dd8212c	0.10553202
236	0xbd90912d	-0.0705894
237	0xbea68964	-0.32526696
238	0xbf4f5c36	-0.8100008
239	0xbf23cedd	-0.63987523
240	0xbddc7d0a	-0.10766037
241	0xbd9fa3dc	-0.077949256
242	0x3dcc1343	0.099646114
243	0xbda7cd2d	-0.08193431
244	0xbd93a485	-0.07209114
245	0x3d9a425a	0.07532187
246	0xbed21943	-0.41034898
247	0xbe86146c	-0.26187456
248	0x3e064f7b	0.13116257
249	0x3d72c8a2	0.05927337
250	0xbd52361b	-0.05132113
251	0x3cc7ff59	0.024413751
252	0x3d864f31	0.06558073
253	0xbdb607fc	-0.08888242
254	0x3e2a568e	0.1663458
255	0x3e1f8b9c	0.155806

bias f4 [32]
0	0x3ed803c7	0.42190382
1	0x3ed64969	0.41852883
2	0x3ecbdfc3	0.39819154
3	0x3eab5bc2	0.33468443
4	0x3e793ee0	0.24340391
5	0x3ed2c77f	0.41167828
6	0x3eab3d7c	0.33445346
7	0x3ed9c403	0.42532358
8	0x3e68e15e	0.22742221
9	0x3e88d695	0.26726213
10	0x3ed21968	0.41035008
11	0x3ebe5e85	0.37181488
12	0x3eb6ac2d	0.35678235
13	0x3e46cb88	0.19413579
14	0x3e8f91b9	0.28040865
15	0x3eec8e29	0.4620221
16	0x3e8fca5d	0.28084078
17	0x3ec5df32	0.38646847
18	0x3d8a50bf	0.06753682
19	0x3e595809	0.21224989
20	0x3f1d51e5	0.61453086
21	0x3ecfa9a8	0.40559125
22	0x3ea5b164	0.323619
23	0x3ea05491	0.3131452
24	0x3f089682	0.53354657
25	0x3e84f208	0.25965905
26	0x3f0202c8	0.50785494
27	0x3f0e1c54	0.55511975
28	0x3eeebd0b	0.46628603
29	0x3ee109b9	0.4395273
30	0x3e1a2720	0.15053988
31	0x3ed37c53	0.4130579

weight f4 [32, 16, 2, 2]
0	0x3e9d4446	0.3071615
1	0x3ca8f7db	0.020626
2	0x3e7b22f9	0.2452506
3	0xbdae6ac6	-0.08516459
4	0x3dbb567b	0.09147354
5	0xbe0c3f6a	-0.13696066
6	0x3cd2b5f2	0.025721524
7	0xbea93e36	-0.33055276
8	0x3d06f463	0.03294791
9	0x3c9fcb71	0.019506188
10	0x3d36d688	0.044638187
11	0xbdc74185	-0.09729294
12	0x3e841340	0.25795937
13	0x3e6e40b7	0.23266874
14	0x3f33c1ab	0.7021739
15	0x3e961b8c	0.29317892
16	0xbebf1dcb	-0.37327418
17	0xbed51297	-0.41615745
18	0xbd1f3790	-0.038871348
19	0xbec210f1	-0.3790355
20	0x3d89353c	0.06699607
21	0xbcc3a4be	-0.023882266
22	0x3e2fa9d2	0.17154625
23	0xbdcec325	-0.100958146
24	0xbf335743	-0.70055026
25	0xbe44c18a	-0.19214454
26	0xbeaaa6af	-0.33330294
27	0xbe5ebca6	-0.21751651
28	0x3df2c067	0.11853104
29	0xbcae0513	-0.021242654
30	0x3e947466	0.28995055
31	0xbd8920b0	-0.06695688
32	0xbda41d7a	-0.08013435
33	0xbeac1f80	-0.33617783
34	0x3e8e3eef	0.2778239
35	0xbd871355	-0.06595484
36	0x3f0e2a0e	0.5553292
37	0x3f0d462e	0.5518521
38	0x3dbe8339	0.093023725
39	0xbeb2de18	-0.3493507
40	0x3dc11711	0.09428228
41	0xbc683a4a	-0.014174053
42	0xbd48e695	-0.049048025
43	0xbbe3f1cc	-0.0069563147
44	0x3de2b68b	0.110699736
45	0xbc485830	-0.012228057
46	0x3f2b993a	0.6703068
47	0x3f024901	0.50892645
48	0xc001c7e3	-2.027825
49	0x3e56b55f	0.20967625
50	0x3e669089	0.22516073
51	0xbb74628e	-0.0037290188
52	0x3d7714b4	0.06032248
53	0xbe3d5c0a	-0.18492141
54	0xbdc4d2e7	-0.09610539
55	0x3e375c7c	0.17906374
56	0xbf1dfee4	-0.6171706
57	0x3e88d4c9	0.26724842
58	0x3e9f32be	0.310934
59	0x3c8afa89	0.016965168
60	0x3e86061e	0.26176542
61	0xbe12fe66	-0.14354858
62	0xbea83055	-0.32849374
63	0x3d221a3d	0.039575804
64	0x3e076fa4	0.13226181
65	0xbdc89a86	-0.09795098
66	0xbdd82a2f	-0.10554921
67	0xbe01d01e	-0.12677047
68	0x3e83d98f	0.25751922
69	0x3cdeff4f	0.02722135
70	0xbb326d40	-0.0027225763
71	0xbd8d14ab	-0.06888708
72	0x3c871012	0.016487155
73	0x3cf978de	0.030453142
74	0xbd8612c0	-0.06546545
75	0x3eb9d456	0.36294812
76	0x3e9ea202	0.30982977
77	0x3e742acc	0.2384445
78	0x3eb49be8	0.35275197
79	0x3dbaccb9	0.09121079
80	0xbe8ccc46	-0.27499598
81	0xbe554721	-0.20827915
82	0xbd59af16	-0.05314549
83	0xbeb7244e	-0.35769886
84	0xbf1272d8	-0.5720649
85	0x3da92524	0.08259037
86	0xbeaa9641	-0.3331776
87	0xbcb9c829	-0.022678452
88	0x3f30f37e	0.6912154
89	0xbf14c6a8	-0.58115625
90	0xbe3a9b86	-0.1822339
91	0xbd9c94bc	-0.07645556
92	0xbe09f314	-0.13471633
93	0xb8d22b88	-0.00010021689
94	0x3e3063d0	0.17225575
95	0xbe176ab2	-0.14786795
96	0x3e9409a6	0.2891361
97	0xbf6a7545	-0.9158519
98	0xbe96f69d	-0.29485026
99	0xbe3d64cd	-0.18495484
100	0xbf27dd51	-0.6557208
101	0x3e008c0f	0.12553428
102	0xbe94aa1d	-0.29036036
103	0x3e80bc41	0.25143626
104	0xbe15ad95	-0.14616998
105	0xbe46c637	-0.1941155
106	0x3d409edb	0.047026496
107	0x3baf0acd	0.0053418637
108	0x3effd316	0.49965733
109	0x3f35d826	0.7103294
110	0x3e2a7c86	0.16649064
111	0xbd059c13	-0.032619547
112	0xbd9518bf	-0.072801106
113	0xbdd84541	-0.10560084
114	0x3c7f23e2	0.01557252
115	0xbe590915	-0.21194871
116	0xbf05fdb1	-0.5234023
117	0xbf7280e0	-0.947279
118	0x3e031fcf	0.12805103
119	0x3cfa00d6	0.030517977
120	0xbecc7eb8	-0.3994043
121	0xbf0dd2f8	-0.5540004
122	0xbda78aaf	-0.08180749
123	0x3e43dfd1	0.19128348
124	0x3e3cc515	0.18434556
125	0x3dcff018	0.10153216
126	0x3d8ac8d4	0.06776586
127	0x3d94362a	0.072368935
128	0xbcf8d998	-0.030377194
129	0xbe101c6d	-0.14073344
130	0x3f12c62d	0.5733364
131	0x3dd648a9	0.104630776
132	0x3db49402	0.08817293
133	0x3d7b304f	0.061325368
134	0x3ca1414c	0.019684456
135	0xbebe84ed	-0.3721079
136	0xbd6001d5	-0.054689247
137	0x3d98dab9	0.07463593
138	0xbe36c101	-0.17847063
139	0x3bbbf07d	0.0057354555
140	0xbed00a7d	-0.40633002
141	0x3ddb88b3	0.10719433
142	0x3d488fd0	0.048965275
143	0xbefd98fa	-0.49530774
144	0xbd6103e5	-0.054935355
145	0xbea0492d	-0.3130583
146	0x3fd23405	1.6422125
147	0x3f59dc96	0.8510221
148	0xbda3f507	-0.0800572
149	0x3e0af702	0.13570789
150	0x3e2aa829	0.1666571
151	0x3d882486	0.06647591
152	0x3f17247b	0.5904004
153	0x3e36b615	0.17842896
154	0x3ffbae40	1.9662552
155	0x3dfb9b72	0.12285508
156	0xbdb8fcbd	-0.09032581
157	0x3d358867	0.044319537
158	0x3d56f203	0.052476894
159	0xbdc2b25c	-0.095066756
160	0x3ccdb3a0	0.025110066
161	0xbe0ca913	-0.13736372
162	0x3d8c4eb6	0.068509504
163	0x3dfb053b	0.12256857
164	0xbdbe6246	-0.09296088
165	0xbd17be84	-0.037046924
166	0xbeb16621	-0.3464823
167	0xbe2f4828	-0.17117369
168	0x3db7eac2	0.089803234
169	0x3d0da754	0.034583405
170	0xbe09a837	-0.13443075
171	0x3d8b86ac	0.06812796
172	0xbe858ece	-0.26085514
173	0xbe07865e	-0.13234851
174	0x3f41dfb8	0.7573199
175	0x3ea27e92	0.3173719
176	0xbe248402	-0.16065982
177	0x3e243f99	0.16039886
178	0x3ec76070	0.38940763
179	0x3d68c97a	0.056832768
180	0xbe3a965c	-0.1822142
181	0x3db5ed62	0.08883168
182	0xbf0b7d93	-0.54488486
183	0xbd6f6d1f	-0.058453675
184	0xbdaf7552	-0.08567299
185	0x3dabd9c4	0.08391145
186	0xbcf3d9f7	-0.02976702
187	0xbc6a417e	-0.014297841
188	0x3e349d72	0.17638186
189	0x3ddb9576	0.10721867
190	0xbf016554	-0.5054524
191	0xbb06b8d5	-0.0020556946
192	0xbc5f2367	-0.01361928
193	0xbe04fd93	-0.12987356
194	0x3d37663b	0.04477523
195	0x3e8a298c	0.26984823
196	0xbe035b57	-0.12827812
197	0x3d896858	0.06709355
198	0xbcff87cc	-0.031192683
199	0xbe5e7c9a	-0.21727219
200	0xbc8ada49	-0.01694979
201	0x3d920727	0.071302705
202	0xbdcf5021	-0.10122705
203	0xbe99ab72	-0.30013615
204	0xbe8157a6	-0.25262183
205	0x3f10867b	0.564552
206	0xbf39a87d	-0.7252272
207	0x3e0574ea	0.1303288
208	0xbe347307	-0.17622004
209	0xbe3e8dd7	-0.18608795
210	0xbe81bfc0	-0.25341606
211	0xbf17ee24	-0.5934775
212	0x3eab2a54	0.3343073
213	0xbeb025e9	-0.34403923
214	0x3cd05e78	0.025435671
215	0xbe074c2f	-0.13212655
216	0x3e45eb44	0.19328028
217	0x3edd012d	0.4316496
218	0xbe51e9ee	-0.20499393
219	0x3ef94fc7	0.48693678
220	0x3db6baf4	0.08922377
221	0xbf396ec1	-0.7243462
222	0x3edbd1a0	0.4293337
223	0xbe02193a	-0.12704936
224	0xbd238a41	-0.03992677
225	0x3f140cc5	0.57831985
226	0xbe014ea4	-0.12627655
227	0x3f013aaf	0.5048017
228	0x3b9b18eb	0.004733195
229	0x3e6a4e54	0.22881442
230	0x3d1dbc11	0.038509432
231	0xbe67d3fd	-0.22639461
232	0x3c75debe	0.015006719
233	0x3c8e6313	0.017381227
234	0xbe0a8170	-0.13525939
235	0xbec04500	-0.37552643
236	0xbe02f191	-0.12787463
237	0xbc5b54a8	-0.013386883
238	0xbe9c98a8	-0.30585217
239	0xbf2d2784	-0.6763842
240	0x3b7b7ce4	0.0038374
241	0xbe608942	-0.2192736
242	0x3ee9c8f2	0.45661122
243	0xbe799abf	-0.24375437
244	0x3e556897	0.20840679
245	0x3ef00ddc	0.46885574
246	0xbe25c023	-0.16186576
247	0x3eab85bd	0.33500472
248	0xbd45c97d	-0.048287857
249	0x3ee7cab4	0.45271838
250	0xbe5fef2a	-0.21868578
251	0xbe68c4a1	-0.22731258
252	0xbe260cfe	-0.16215894
253	0x3ec18744	0.37798512
254	0xbe6414b3	-0.22273521
255	0x3e8eb1dc	0.2787007

bias f4 [16]
0	0xbe8bc408	-0.27297997
1	0xbe79a4a7	-0.24379216
2	0xbe46813c	-0.19385237
3	0xbef13703	-0.47112283
4	0xbee831f5	-0.45350614
5	0xbd2a0815	-0.041511614
6	0x3e167c8f	0.14695953
7	0xbe932d36	-0.2874543
8	0x3c94a1cf	0.018143563
9	0x3c967bbd	0.01836955
10	0x3e475317	0.1946529
11	0xbef3259f	-0.4748964
12	0x3e95687b	0.29181275
13	0x3d7bb199	0.061448667
14	0xbe6f0db5	-0.23345073
15	0xbe29772e	-0.1654937

weight f4 [16, 3, 2, 2]
0	0xbd9579d8	-0.072986305
1	0xbedb3d89	-0.42820385
2	0xbe8eb4b5	-0.27872244
3	0x3e3b99c2	0.18320373
4	0xbf567463	-0.8377134
5	0xbf5b7ee3	-0.8574049
6	0x3f277f47	0.65428585
7	0x3f60af7b	0.8776776
8	0x3f56c722	0.838976
9	0x3f6d2922	0.9264089
10	0xbf2b9d67	-0.6703705
11	0xbf5cd6d9	-0.8626533
12	0xbd0a9eed	-0.03384297
13	0x3efba995	0.49152818
14	0xbec911f3	-0.39271507
15	0x3e1c1710	0.15243173
16	0x3d96f2c6	0.07370524
17	0xbe0ae510	-0.13563943
18	0xbfa029f9	-1.2512809
19	0x3f0efb61	0.55852324
20	0xbdd2a85a	-0.10286017
21	0x3e340ffc	0.17584223
22	0x3fb74cf3	1.4320358
23	0xbeffaca5	-0.49936405
24	0xbeaa6a49	-0.33284214
25	0x3d9964ac	0.07489905
26	0x3d4ede38	0.050504893
27	0x3e3c8366	0.184095
28	0xbefe0b8d	-0.49618188
29	0x3ee7c993	0.45270976
30	0xbdfe1e98	-0.12408179
31	0x3f038fa5	0.5139106
32	0x3f147675	0.5799325
33	0xbed89509	-0.42301205
34	0x3d5a7a56	0.053339325
35	0xbf0da16d	-0.5532444
36	0x3f298b2e	0.66227996
37	0x4011eea3	2.2801902
38	0xbe82bed1	-0.25536206
39	0x3dd7c1e1	0.10535026
40	0xbf010dd6	-0.50411737
41	0xc00e7712	-2.2260175
42	0xbe387cf3	-0.18016414
43	0xbe6211a7	-0.22077046
44	0x3e3e99b7	0.18613325
45	0xbfae88ef	-1.3635539
46	0x3e2093fb	0.1568145
47	0xbe923bb6	-0.2856118
48	0x3f553d10	0.832963
49	0xbf757fd9	-0.95898205
50	0x4024adb1	2.5731013
51	0x3ec34a8a	0.38142806
52	0xbe9ae0e0	-0.3024969
53	0x3e9fa4af	0.3118033
54	0xbfe72a06	-1.80597
55	0xbeb6628c	-0.3562206
56	0xbe4011e5	-0.18756826
57	0x3e2ce745	0.16885097
58	0xbf95f9b0	-1.1716824
59	0xbe7df23d	-0.24799438
60	0x3da10894	0.07862964
61	0xbe8267b7	-0.25469753
62	0xbe8b243a	-0.27176076
63	0xbf585397	-0.8450255
64	0xbe7d7a43	-0.2475367
65	0x3f1308ef	0.57435507
66	0xbf547370	-0.82988644
67	0x3fc5f6d5	1.5465952
68	0x3efa541f	0.48892304
69	0xbe8cb441	-0.27481273
70	0x3f93348d	1.1500412
71	0xbfa22cd3	-1.2669929
72	0xbf13de4a	-0.5776106
73	0x3f9bbe0b	1.2167372
74	0x3e37473d	0.17898269
75	0x40114b50	2.2702217
76	0x3e542065	0.20715483
77	0xbf25406d	-0.6455143
78	0x3c8d6a3e	0.017262574
79	0xbfb180d0	-1.3867435
80	0x3d13ce42	0.036085375
81	0xbed37bdd	-0.41305438
82	0xbd8be91e	-0.06831573
83	0xbf631e04	-0.88717675
84	0x3dce892f	0.100847594
85	0xbec20703	-0.37895975
86	0xbf314e99	-0.69260556
87	0xbeab9509	-0.33512142
88	0xbecf668a	-0.4050792
89	0xbf821982	-1.0164034
90	0x38a2bdc3	7.760108e-05
91	0xbe98ea56	-0.29866284
92	0x3e320241	0.17383672
93	0x3f5cc6bf	0.8624076
94	0xbeb2cd33	-0.3492218
95	0xbc2f4f67	-0.010700083
96	0xbe24dd8a	-0.16100135
97	0x3e4d15a7	0.20027791
98	0xbf06968f	-0.52573484
99	0xbda4c8d2	-0.08046116
100	0x3f9dcbfe	1.2327878
101	0xbf407a68	-0.7518678
102	0x3fcf688f	1.6203784
103	0xbf5e6cb1	-0.868846
104	0xbf998890	-1.19948
105	0x3f658ff2	0.8967277
106	0xbfd2dbfd	-1.6473385
107	0x3f4c8d05	0.7990268
108	0xbe794a71	-0.24344803
109	0xbcf231a4	-0.029564686
110	0x3dd9fe7e	0.10644244
111	0x3e5a25b8	0.21303451
112	0xbf8fa537	-1.1222295
113	0x3f1f2f7a	0.6218182
114	0xbe8e36f6	-0.27776307
115	0xbe113b8f	-0.14182876
116	0x3f72efec	0.9489734
117	0xbf648b68	-0.8927522
118	0xbc2c46dd	-0.010514942
119	0xbcd7271e	-0.02626377
120	0xbe9843e4	-0.29739296
121	0xbf227c1f	-0.63470644
122	0xbf260e12	-0.6486522
123	0xbf33f642	-0.70297635
124	0x3f56e09a	0.83936465
125	0x3f9aa761	1.208233
126	0x3f802a2b	1.0012869
127	0x3f76c062	0.963873
128	0xbf1cf00e	-0.61303794
129	0xbf8b4d88	-1.0883036
130	0xbf3bdddd	-0.7338541
131	0xbf34cac3	-0.7062189
132	0x401d65ee	2.4593463
133	0x3fa4f483	1.2887119
134	0x3e248262	0.16065362
135	0xbe897a35	-0.2685105
136	0xbfd34007	-1.6503915
137	0xbf23ef6d	-0.6403721
138	0x3c7ad2c5	0.01530904
139	0x3e238f30	0.1597259
140	0xbfd42a9f	-1.6575507
141	0xbed3e329	-0.41384247
142	0xbe0ad787	-0.1355878
143	0x3e318b39	0.17338265
144	0xbf20bda1	-0.6278935
145	0xbd587e9b	-0.052855115
146	0xbe67a858	-0.22622812
147	0xbda636a5	-0.08115891
148	0x3f383d09	0.7196813
149	0x3f56f86b	0.83972806
150	0x3f83ef5c	1.0307422
151	0x3f31719d	0.69313985
152	0xbf13e149	-0.5776563
153	0xbf4c26ad	-0.79746515
154	0xbf5376c7	-0.82603115
155	0xbf065185	-0.5246814
156	0x3e7a5fc6	0.24450597
157	0xbea5a1cf	-0.32350013
158	0x3d37bcf4	0.044857934
159	0x3d358315	0.044314463
160	0x3eb08960	0.3447981
161	0xbea4e139	-0.3220308
162	0xbee3beec	-0.444816
163	0xbe590313	-0.21192579
164	0xbf09540f	-0.5364389
165	0x3e66847a	0.22511473
166	0x3e8edde3	0.2790366
167	0x3c8b2f74	0.0169904
168	0xbf66ee2d	-0.9020718
169	0xbf4fcf09	-0.81175286
170	0xbeebee01	-0.4608002
171	0xbc67e143	-0.014152828
172	0x3fa50f03	1.2895206
173	0x3fee8317	1.8633755
174	0xbf1fbb78	-0.6239543
175	0xbf0d2d38	-0.55147123
176	0xbf87ce5d	-1.0609852
177	0xbfe04580	-1.752121
178	0x3f519312	0.81865036
179	0x3f3f215b	0.7466027
180	0xbedb8bf9	-0.42880228
181	0xbecdf603	-0.40226755
182	0xbeb841ce	-0.35987705
183	0xbef49618	-0.47770762
184	0xbf008d76	-0.5021585
185	0xbf21dfef	-0.6323232
186	0xbdee6b05	-0.11641506
187	0xbf26f31f	-0.65214723
188	0x3f3c7d2d	0.73628503
189	0x3f5d0a54	0.86343884
190	0x3ea6ea4f	0.32600638
191	0x3f6254ce	0.8841065

bias f4 [3]
0	0xbf173b97	-0.590753
1	0xbf18aad4	-0.59635663
2	0xbf62b7b6	-0.8856157
